2022-01-23 22:37:59,849 INFO     Wrote config.txt file
2022-01-23 22:37:59,856 INFO     GerbilizerDenseNet(
  (pooling): AvgPool1d(kernel_size=(2,), stride=(2,), padding=(0,))
  (f_convs): ModuleList(
    (0): Conv1d(4, 10, kernel_size=(15,), stride=(2,), padding=(7,))
    (1): Conv1d(14, 12, kernel_size=(15,), stride=(2,), padding=(7,))
    (2): Conv1d(26, 14, kernel_size=(15,), stride=(2,), padding=(7,))
    (3): Conv1d(40, 16, kernel_size=(15,), stride=(2,), padding=(7,))
    (4): Conv1d(56, 18, kernel_size=(15,), stride=(2,), padding=(7,))
    (5): Conv1d(74, 20, kernel_size=(15,), stride=(2,), padding=(7,))
    (6): Conv1d(94, 20, kernel_size=(13,), stride=(2,), padding=(6,))
    (7): Conv1d(114, 20, kernel_size=(11,), stride=(2,), padding=(5,))
    (8): Conv1d(134, 20, kernel_size=(9,), stride=(2,), padding=(4,))
    (9): Conv1d(154, 20, kernel_size=(7,), stride=(2,), padding=(3,))
    (10): Conv1d(174, 20, kernel_size=(5,), stride=(2,), padding=(2,))
    (11): Conv1d(194, 20, kernel_size=(3,), stride=(2,), padding=(1,))
  )
  (g_convs): ModuleList(
    (0): Conv1d(4, 10, kernel_size=(15,), stride=(2,), padding=(7,))
    (1): Conv1d(14, 12, kernel_size=(15,), stride=(2,), padding=(7,))
    (2): Conv1d(26, 14, kernel_size=(15,), stride=(2,), padding=(7,))
    (3): Conv1d(40, 16, kernel_size=(15,), stride=(2,), padding=(7,))
    (4): Conv1d(56, 18, kernel_size=(15,), stride=(2,), padding=(7,))
    (5): Conv1d(74, 20, kernel_size=(15,), stride=(2,), padding=(7,))
    (6): Conv1d(94, 20, kernel_size=(13,), stride=(2,), padding=(6,))
    (7): Conv1d(114, 20, kernel_size=(11,), stride=(2,), padding=(5,))
    (8): Conv1d(134, 20, kernel_size=(9,), stride=(2,), padding=(4,))
    (9): Conv1d(154, 20, kernel_size=(7,), stride=(2,), padding=(3,))
    (10): Conv1d(174, 20, kernel_size=(5,), stride=(2,), padding=(2,))
    (11): Conv1d(194, 20, kernel_size=(3,), stride=(2,), padding=(1,))
  )
  (norm_layers): ModuleList(
    (0): Identity()
    (1): Identity()
    (2): Identity()
    (3): Identity()
    (4): Identity()
    (5): Identity()
    (6): Identity()
    (7): Identity()
    (8): Identity()
    (9): Identity()
    (10): Identity()
    (11): Identity()
  )
  (x_coord_readout): Linear(in_features=214, out_features=3, bias=True)
  (y_coord_readout): Linear(in_features=214, out_features=3, bias=True)
)
2022-01-23 22:37:59,859 INFO     Training set:   <dataloaders.GerbilVocalizationDataset object at 0x142ac1790>
2022-01-23 22:37:59,859 INFO     Validation set:   <dataloaders.GerbilVocalizationDataset object at 0x142ac18b0>
2022-01-23 22:37:59,859 INFO     Test set:   <dataloaders.GerbilVocalizationDataset object at 0x142ac1970>
2022-01-23 22:37:59,860 INFO      ==== STARTING TRAINING ====
…
