2022-01-23 18:37:01,297 INFO     Wrote config.txt file
2022-01-23 18:37:01,303 INFO     GerbilizerDenseNet(
  (pooling): AvgPool1d(kernel_size=(2,), stride=(2,), padding=(0,))
  (f_convs): ModuleList(
    (0): Conv1d(4, 11, kernel_size=(19,), stride=(2,), padding=(9,))
    (1): Conv1d(15, 10, kernel_size=(19,), stride=(2,), padding=(9,))
    (2): Conv1d(25, 10, kernel_size=(19,), stride=(2,), padding=(9,))
    (3): Conv1d(35, 10, kernel_size=(19,), stride=(2,), padding=(9,))
    (4): Conv1d(45, 10, kernel_size=(19,), stride=(2,), padding=(9,))
    (5): Conv1d(55, 10, kernel_size=(19,), stride=(2,), padding=(9,))
    (6): Conv1d(65, 10, kernel_size=(19,), stride=(2,), padding=(9,))
    (7): Conv1d(75, 10, kernel_size=(19,), stride=(2,), padding=(9,))
    (8): Conv1d(85, 10, kernel_size=(19,), stride=(2,), padding=(9,))
    (9): Conv1d(95, 10, kernel_size=(19,), stride=(2,), padding=(9,))
    (10): Conv1d(105, 10, kernel_size=(19,), stride=(2,), padding=(9,))
    (11): Conv1d(115, 10, kernel_size=(19,), stride=(2,), padding=(9,))
  )
  (g_convs): ModuleList(
    (0): Conv1d(4, 11, kernel_size=(19,), stride=(2,), padding=(9,))
    (1): Conv1d(15, 10, kernel_size=(19,), stride=(2,), padding=(9,))
    (2): Conv1d(25, 10, kernel_size=(19,), stride=(2,), padding=(9,))
    (3): Conv1d(35, 10, kernel_size=(19,), stride=(2,), padding=(9,))
    (4): Conv1d(45, 10, kernel_size=(19,), stride=(2,), padding=(9,))
    (5): Conv1d(55, 10, kernel_size=(19,), stride=(2,), padding=(9,))
    (6): Conv1d(65, 10, kernel_size=(19,), stride=(2,), padding=(9,))
    (7): Conv1d(75, 10, kernel_size=(19,), stride=(2,), padding=(9,))
    (8): Conv1d(85, 10, kernel_size=(19,), stride=(2,), padding=(9,))
    (9): Conv1d(95, 10, kernel_size=(19,), stride=(2,), padding=(9,))
    (10): Conv1d(105, 10, kernel_size=(19,), stride=(2,), padding=(9,))
    (11): Conv1d(115, 10, kernel_size=(19,), stride=(2,), padding=(9,))
  )
  (norm_layers): ModuleList(
    (0): Identity()
    (1): Identity()
    (2): Identity()
    (3): Identity()
    (4): Identity()
    (5): Identity()
    (6): Identity()
    (7): Identity()
    (8): Identity()
    (9): Identity()
    (10): Identity()
    (11): Identity()
  )
  (x_coord_readout): Linear(in_features=125, out_features=3, bias=True)
  (y_coord_readout): Linear(in_features=125, out_features=3, bias=True)
)
2022-01-23 18:37:01,305 INFO     Training set:   <dataloaders.GerbilVocalizationDataset object at 0x141b94730>
2022-01-23 18:37:01,306 INFO     Validation set:   <dataloaders.GerbilVocalizationDataset object at 0x141b94850>
2022-01-23 18:37:01,306 INFO     Test set:   <dataloaders.GerbilVocalizationDataset object at 0x141b94910>
2022-01-23 18:37:01,306 INFO      ==== STARTING TRAINING ====
…
