2022-01-23 19:04:55,268 INFO     Wrote config.txt file
2022-01-23 19:04:55,274 INFO     GerbilizerDenseNet(
  (pooling): AvgPool1d(kernel_size=(2,), stride=(2,), padding=(0,))
  (f_convs): ModuleList(
    (0): Conv1d(4, 11, kernel_size=(19,), stride=(2,), padding=(9,))
    (1): Conv1d(15, 10, kernel_size=(17,), stride=(2,), padding=(8,))
    (2): Conv1d(25, 10, kernel_size=(15,), stride=(2,), padding=(7,))
    (3): Conv1d(35, 10, kernel_size=(13,), stride=(2,), padding=(6,))
    (4): Conv1d(45, 10, kernel_size=(11,), stride=(2,), padding=(5,))
    (5): Conv1d(55, 10, kernel_size=(9,), stride=(2,), padding=(4,))
    (6): Conv1d(65, 10, kernel_size=(7,), stride=(2,), padding=(3,))
    (7): Conv1d(75, 10, kernel_size=(5,), stride=(2,), padding=(2,))
    (8): Conv1d(85, 10, kernel_size=(5,), stride=(2,), padding=(2,))
    (9): Conv1d(95, 10, kernel_size=(5,), stride=(2,), padding=(2,))
    (10): Conv1d(105, 10, kernel_size=(5,), stride=(2,), padding=(2,))
    (11): Conv1d(115, 10, kernel_size=(3,), stride=(2,), padding=(1,))
  )
  (g_convs): ModuleList(
    (0): Conv1d(4, 11, kernel_size=(19,), stride=(2,), padding=(9,))
    (1): Conv1d(15, 10, kernel_size=(17,), stride=(2,), padding=(8,))
    (2): Conv1d(25, 10, kernel_size=(15,), stride=(2,), padding=(7,))
    (3): Conv1d(35, 10, kernel_size=(13,), stride=(2,), padding=(6,))
    (4): Conv1d(45, 10, kernel_size=(11,), stride=(2,), padding=(5,))
    (5): Conv1d(55, 10, kernel_size=(9,), stride=(2,), padding=(4,))
    (6): Conv1d(65, 10, kernel_size=(7,), stride=(2,), padding=(3,))
    (7): Conv1d(75, 10, kernel_size=(5,), stride=(2,), padding=(2,))
    (8): Conv1d(85, 10, kernel_size=(5,), stride=(2,), padding=(2,))
    (9): Conv1d(95, 10, kernel_size=(5,), stride=(2,), padding=(2,))
    (10): Conv1d(105, 10, kernel_size=(5,), stride=(2,), padding=(2,))
    (11): Conv1d(115, 10, kernel_size=(3,), stride=(2,), padding=(1,))
  )
  (norm_layers): ModuleList(
    (0): Identity()
    (1): Identity()
    (2): Identity()
    (3): Identity()
    (4): Identity()
    (5): Identity()
    (6): Identity()
    (7): Identity()
    (8): Identity()
    (9): Identity()
    (10): Identity()
    (11): Identity()
  )
  (x_coord_readout): Linear(in_features=125, out_features=3, bias=True)
  (y_coord_readout): Linear(in_features=125, out_features=3, bias=True)
)
2022-01-23 19:04:55,277 INFO     Training set:   <dataloaders.GerbilVocalizationDataset object at 0x14a544790>
2022-01-23 19:04:55,277 INFO     Validation set:   <dataloaders.GerbilVocalizationDataset object at 0x14a5448b0>
2022-01-23 19:04:55,278 INFO     Test set:   <dataloaders.GerbilVocalizationDataset object at 0x14a544970>
2022-01-23 19:04:55,278 INFO      ==== STARTING TRAINING ====
…
