2022-01-23 21:37:09,521 INFO     Wrote config.txt file
2022-01-23 21:37:09,528 INFO     GerbilizerDenseNet(
  (pooling): AvgPool1d(kernel_size=(2,), stride=(2,), padding=(0,))
  (f_convs): ModuleList(
    (0): Conv1d(4, 11, kernel_size=(49,), stride=(2,), padding=(24,))
    (1): Conv1d(15, 10, kernel_size=(45,), stride=(2,), padding=(22,))
    (2): Conv1d(25, 10, kernel_size=(41,), stride=(2,), padding=(20,))
    (3): Conv1d(35, 10, kernel_size=(37,), stride=(2,), padding=(18,))
    (4): Conv1d(45, 10, kernel_size=(33,), stride=(2,), padding=(16,))
    (5): Conv1d(55, 10, kernel_size=(29,), stride=(2,), padding=(14,))
    (6): Conv1d(65, 10, kernel_size=(25,), stride=(2,), padding=(12,))
    (7): Conv1d(75, 10, kernel_size=(21,), stride=(2,), padding=(10,))
    (8): Conv1d(85, 10, kernel_size=(17,), stride=(2,), padding=(8,))
    (9): Conv1d(95, 10, kernel_size=(13,), stride=(2,), padding=(6,))
    (10): Conv1d(105, 10, kernel_size=(9,), stride=(2,), padding=(4,))
    (11): Conv1d(115, 10, kernel_size=(5,), stride=(2,), padding=(2,))
  )
  (g_convs): ModuleList(
    (0): Conv1d(4, 11, kernel_size=(49,), stride=(2,), padding=(24,))
    (1): Conv1d(15, 10, kernel_size=(45,), stride=(2,), padding=(22,))
    (2): Conv1d(25, 10, kernel_size=(41,), stride=(2,), padding=(20,))
    (3): Conv1d(35, 10, kernel_size=(37,), stride=(2,), padding=(18,))
    (4): Conv1d(45, 10, kernel_size=(33,), stride=(2,), padding=(16,))
    (5): Conv1d(55, 10, kernel_size=(29,), stride=(2,), padding=(14,))
    (6): Conv1d(65, 10, kernel_size=(25,), stride=(2,), padding=(12,))
    (7): Conv1d(75, 10, kernel_size=(21,), stride=(2,), padding=(10,))
    (8): Conv1d(85, 10, kernel_size=(17,), stride=(2,), padding=(8,))
    (9): Conv1d(95, 10, kernel_size=(13,), stride=(2,), padding=(6,))
    (10): Conv1d(105, 10, kernel_size=(9,), stride=(2,), padding=(4,))
    (11): Conv1d(115, 10, kernel_size=(5,), stride=(2,), padding=(2,))
  )
  (norm_layers): ModuleList(
    (0): Identity()
    (1): Identity()
    (2): Identity()
    (3): Identity()
    (4): Identity()
    (5): Identity()
    (6): Identity()
    (7): Identity()
    (8): Identity()
    (9): Identity()
    (10): Identity()
    (11): Identity()
  )
  (x_coord_readout): Linear(in_features=125, out_features=3, bias=True)
  (y_coord_readout): Linear(in_features=125, out_features=3, bias=True)
)
2022-01-23 21:37:09,530 INFO     Training set:   <dataloaders.GerbilVocalizationDataset object at 0x1496aa760>
2022-01-23 21:37:09,531 INFO     Validation set:   <dataloaders.GerbilVocalizationDataset object at 0x1496aa880>
2022-01-23 21:37:09,531 INFO     Test set:   <dataloaders.GerbilVocalizationDataset object at 0x1496aa940>
2022-01-23 21:37:09,531 INFO      ==== STARTING TRAINING ====
…
